Model: "sequential"
_________________________________________________________________
 Layer (type)                Output Shape              Param #   
=================================================================
 conv2d_1 (Conv2D)           (None, 32, 32, 32)        896       
                                                                 
 max_pooling2d (MaxPooling2D  (None, 16, 16, 32)       0         
 )                                                               
                                                                 
 dropout (Dropout)           (None, 16, 16, 32)        0         
                                                                 
 conv2d_2 (Conv2D)           (None, 16, 16, 64)        18496     
                                                                 
 max_pooling2d_1 (MaxPooling  (None, 8, 8, 64)         0         
 2D)                                                             
                                                                 
 dropout_1 (Dropout)         (None, 8, 8, 64)          0         
                                                                 
 conv2d_3 (Conv2D)           (None, 8, 8, 128)         73856     
                                                                 
 max_pooling2d_2 (MaxPooling  (None, 4, 4, 128)        0         
 2D)                                                             
                                                                 
 dropout_2 (Dropout)         (None, 4, 4, 128)         0         
                                                                 
 conv2d_4 (Conv2D)           (None, 4, 4, 256)         295168    
                                                                 
 max_pooling2d_3 (MaxPooling  (None, 2, 2, 256)        0         
 2D)                                                             
                                                                 
 dropout_3 (Dropout)         (None, 2, 2, 256)         0         
                                                                 
 flatten (Flatten)           (None, 1024)              0         
                                                                 
 dropout_4 (Dropout)         (None, 1024)              0         
                                                                 
 dense_1 (Dense)             (None, 1024)              1049600   
                                                                 
 dropout_5 (Dropout)         (None, 1024)              0         
                                                                 
 dense_2 (Dense)             (None, 10)                10250     
                                                                 
=================================================================
Total params: 1,448,266
Trainable params: 1,448,266
Non-trainable params: 0
_________________________________________________________________
Epoch 1/50
16/16 - 7s - loss: 2.3086 - accuracy: 0.1175 - val_loss: 2.2910 - val_accuracy: 0.1385 - 7s/epoch - 450ms/step
…
